checkpoints/energy_multi/kronos_adapter_v0/kronos_adapter_best_v0.pt (torch, 5619 bytes, 4 tensors)

net.0.weight f4 [64, 5]
000000 4c 2d 53 3e 68 7c a0 bd b9 d9 55 bd bd 68 a0 be
       0.20622748 -0.078362286 -0.05220959 -0.3132991
000010 89 fa 4b 3c b3 9b b8 be 81 64 0e 38 38 86 2d 38
       0.012449869 -0.3605629 3.394904e-05 4.1371415e-05
000020 6d ee 92 39 19 d4 9a 3e c1 a1 70 3d ea 8f ab 38
       0.0002802493 0.30239943 0.05874801 8.1807215e-05
000030 82 32 e2 3d 3a f2 36 be 1a 4e 09 39 fe e9 db 3c
       0.1104479 -0.1786584 0.00013094433 0.026844975
000040 50 ef 5c be b7 f4 c0 3d 30 4d 83 be 6b bb 84 be
       -0.21575665 0.09421676 -0.25644827 -0.2592424
000050 7c e1 eb 3d 48 2a 9f be 73 5d 86 3e 8a 48 b0 be
       0.11517617 -0.31086946 0.2624317 -0.34430343
000060 77 6c 22 3e 07 0a bd 3d 87 6f 6d 3e 35 64 31 3e
       0.15861689 0.09230428 0.23187076 0.17323382
000070 29 d4 84 3e 37 a0 73 be e4 e8 24 be b5 36 0c be
       0.25943115 -0.23791586 -0.16104466 -0.13692744
000080 93 c4 8e 3d 90 d3 1a 3e af 8d 84 3d 09 7c 68 be
       0.06971087 0.15119767 0.064723365 -0.22703566
000090 6b a3 43 3d 52 54 ed bd 6d 04 00 be fe 51 91 bd
       0.04776327 -0.115883484 -0.12501688 -0.07095717
0000a0 30 35 9f 3e a3 e7 b8 3e b9 0b 48 be 7e 67 6a be
       0.31095266 0.36114225 -0.19535722 -0.22891042
0000b0 df 11 9f 3e c0 b8 fd 3d f7 3f 94 3e 50 94 70 3d
       0.31068322 0.12388754 0.2895505 0.05873519
0000c0 45 b4 94 3e d6 0a c6 3e bb b1 d8 3d 94 4d 60 be
       0.29043785 0.38680142 0.105807744 -0.21904594
0000d0 10 d4 6c 3e f6 8b 0c be 0c 89 61 bd b3 70 fc bd
       0.2312777 -0.13725266 -0.05506234 -0.12326183
0000e0 8c ce 44 bd 17 39 42 3e ec ce fd bd 34 47 89 3e
       -0.04804854 0.1896709 -0.12392983 0.26812136
0000f0 64 9e 61 3e d8 b6 ee b6 b7 42 64 3e 64 af dd bb
       0.22033077 -7.1142385e-06 0.22291075 -0.006765293
000100 7b 1e 03 3e 9a 98 a9 bd f3 c9 05 bd 3a 89 d8 ba
       0.12804596 -0.082810596 -0.032663297 -0.0016520389
000110 31 1a b5 3e 0b e4 67 be 34 e4 95 3e 3a 82 5a be
       0.35371545 -0.22645585 0.29275668 -0.2133874
000120 32 88 7c be 15 ac 3d be 3a 22 b5 3e 47 a6 32 be
       -0.2466133 -0.18522675 0.35377675 -0.17446242
000130 f3 da 92 be b7 90 82 3e 14 2e 83 3d b2 08 2c bd
       -0.2868267 0.25501034 0.06405273 -0.04200048
000140 7c fa c2 be 48 48 a1 3e 9c f5 17 3e 8c c0 00 bf
       -0.3808173 0.3150046 0.14839786 -0.50293803
000150 0c 3b 03 3e f9 fc 83 bd aa 10 a9 bd da a1 32 ba
       0.12815493 -0.06444735 -0.082551315 -0.0006814279
000160 b7 d6 c7 3d 10 1e 01 39 6f 06 e1 3d d2 d0 dc 3d
       0.097577505 0.00012313598 0.10987555 0.10782017
000170 b9 55 21 3d 41 f9 3b be 31 78 a9 3e 93 0c 93 3e
       0.039388392 -0.18356802 0.3309951 0.2872053
000180 8e c7 1f be f0 f6 e5 bc 9d 9c aa 3e 71 37 c7 bd
       -0.15603468 -0.02807185 0.3332261 -0.097273715
000190 8b 5d a0 be 33 7e 91 3e d1 b7 81 be 1f 28 f5 bb
       -0.31321368 0.28416595 -0.25335553 -0.0074815894
0001a0 64 a9 46 3c e8 97 22 be d0 bc 90 3e 39 b1 ab be
       0.012125347 -0.1587826 0.28269053 -0.33533648
0001b0 f1 82 7b 3e cd 07 ba 3d ab af dc bd b0 b7 d6 bd
       0.24561669 0.09083519 -0.107756935 -0.10484254
0001c0 47 76 33 be 9c 42 36 be e9 30 87 be 7c ea 32 be
       -0.17525588 -0.17798847 -0.26404503 -0.17472261
0001d0 53 a2 23 be 68 9c f0 3c 6d 00 0a 3e c8 f9 8a be
       -0.1597989 0.029371455 0.13476725 -0.27143693
0001e0 ac f7 d6 bd d4 3b c4 bd 65 92 2b 3e fc 68 c1 3e
       -0.104964584 -0.09581724 0.16755064 0.3777541
0001f0 db 6d 87 3e 26 be 11 be 5c 63 83 be 82 65 9b be
       0.26451 -0.14232692 -0.25661743 -0.30350882
000200 d5 53 ce 3c 8a d2 5d be c6 0b 4c be 9e 64 5e 39
       0.025186459 -0.21662346 -0.19926366 0.00021209053
000210 f5 db 36 3e 44 5f f2 bc 14 0d db bd 72 9f 8d 3e
       0.17857344 -0.029586442 -0.10695854 0.2766071
000220 ed bf db be eb c6 a5 be 99 b9 79 be 7f b4 a9 be
       -0.42919865 -0.32378325 -0.24387206 -0.3314552
000230 1e 1f e9 3c 55 73 89 3e 78 35 aa 3d 6f 2f 9f be
       0.02845722 0.26845804 0.083109796 -0.31090876
000240 52 60 65 3e 16 7c 69 be a2 54 ea b8 bd 22 b7 3c
       0.22400025 -0.22801241 -0.000111737536 0.022355432
000250 7d bd b7 bd 50 be 0c bd b6 1c a2 be ef 8e 08 3e
       -0.08971689 -0.034361184 -0.3166253 0.13335775
000260 60 e8 3c 3e ec db 91 be 31 40 4b 3e cc c0 af 3e
       0.18448019 -0.284881 0.19848706 0.3432678
000270 ce 7e cd 3a b9 bd ac 3e 0c 98 84 be 99 68 cb 3c
       0.001567805 0.33738497 -0.25897253 0.02483015
000280 7e 75 9a be d1 28 db be e6 3e a6 bd bb bd 81 3d
       -0.30167764 -0.42804578 -0.08117466 0.06335016
000290 b2 ef 1a 3e 8b bd 24 3d 51 ad 76 3c fc e1 9a 3c
       0.15130499 0.040219825 0.01505597 0.018906586
0002a0 7a 20 87 38 f7 39 c2 bd 8a 5e ee 38 2f f4 9b 39
       6.443351e-05 -0.09483712 0.00011366334 0.00029745835
0002b0 56 5b 92 3e 25 c3 fe bc 01 76 17 bd 4e db 67 bc
       0.2858531 -0.031098912 -0.03697777 -0.014151407
0002c0 19 52 41 3e 20 16 f2 be 0b 03 e0 bd 5b 51 db 3d
       0.18878974 -0.47282505 -0.109380804 0.10708877
0002d0 ad a6 f8 3c be 59 95 3e d9 39 9a 3e 0a c6 3a 3e
       0.030352915 0.2917003 0.3012226 0.18239608
0002e0 4e 24 fd b7 7c 01 53 be de 45 c7 bd dd 01 ea 3d
       -3.0176856e-05 -0.20606035 -0.09730123 0.11426137
0002f0 1b ae 91 3b 62 44 13 3d 94 0c 89 be ee a4 3d 3e
       0.004445804 0.035953887 -0.2676741 0.18519947
000300 7b d2 89 be 91 a1 7f be 5c e2 83 3e cf ab ef bc
       -0.26918396 -0.24963976 0.25758636 -0.02925673
000310 cc e2 58 3d 23 5f 2a 3e d7 96 5a be c2 04 93 3e
       0.052950665 0.16637854 -0.21346603 0.28714567
000320 87 1f 7f bb 5e 39 84 3e 98 88 8c bd e6 34 86 be
       -0.0038928704 0.25825018 -0.06861991 -0.26212233
000330 2c 44 8f be d7 f1 9b 3c 20 2e 58 3e 34 d1 17 3e
       -0.279817 0.019036217 0.21111345 0.14825898
000340 17 7e 8d 3d 31 f8 d7 b8 cd c9 2b 3d be 2d 04 3d
       0.06908815 -0.00010298228 0.0419405 0.032270186
000350 e9 b9 58 3e 12 2c 9d 3c dc e7 a9 3e 16 7e 50 bd
       0.21164669 0.019186053 0.33184707 -0.050901495
000360 64 02 2e 3c f6 fc 68 3e 50 2e 04 be 53 19 ce 3d
       0.010620687 0.22752747 -0.12908292 0.10063424
000370 0f 20 aa be 3e de 15 bc b5 67 80 be 6e 50 3b bd
       -0.33227584 -0.009147225 -0.25079122 -0.045731
000380 67 c8 ac be 4f 20 81 be a8 5a 12 3e 18 26 55 be
       -0.33746645 -0.25219962 0.14292395 -0.20815313
000390 12 09 9d 3e 6a 28 70 bd bd 26 03 3b 20 cd 8b be
       0.30670983 -0.05863229 0.0020012103 -0.27304935
0003a0 28 1a 3f 3b 1e 84 40 bd 1f be ec bd ac 65 2a 3d
       0.0029159877 -0.047000997 -0.115597 0.041600868
0003b0 c9 30 6b 3b 6f 39 2f 3d 9b 47 b5 ba f6 22 e7 3d
       0.0035887233 0.042779382 -0.0013830544 0.11285965
0003c0 84 47 96 be ed 9e a3 bd 1e da cb 39 7e 28 21 be
       -0.29351437 -0.07989297 0.00038881687 -0.15738103
0003d0 63 08 11 be 5c 07 19 3e 93 85 e5 3d e4 ac a2 3c
       -0.14163356 0.14944214 0.11207118 0.019857831
0003e0 cf a5 83 3d 80 41 3a 3d c1 cb 17 3e 4b 0b 70 3e
       0.0642811 0.045472622 0.1482382 0.23441808
0003f0 e8 c9 e1 bd ef 3e 16 3e b8 38 8d be 2b c5 9e be
       -0.11024839 0.14672445 -0.27582335 -0.31009802

net.0.bias f4 [64]
000000 70 25 99 be 2b 54 d0 bd 7d 81 87 bc 7f 01 58 be
       -0.29911375 -0.10172304 -0.016541237 -0.2109432
000010 7c 05 26 bd d4 3e 12 be 3f 12 8b be f6 f4 2e be
       -0.040532574 -0.1428178 -0.27162358 -0.17085633
000020 0b 65 d8 3e 73 68 d1 3e 51 de 2f 3e d7 a0 d7 3c
       0.4226459 0.409 0.1717465 0.026321812
000030 4b ba 7f be 0c 68 5d bd d9 2f b6 3e 98 ae a2 3e
       -0.24973409 -0.054054305 0.3558338 0.3177383
000040 55 06 62 3e 90 7d 18 be f5 12 f8 3c bc de 55 3e
       0.22072728 -0.14891648 0.030282477 0.20885748
000050 39 ce 21 be c3 b0 ae 3e 51 1e c6 3e 59 dd c9 3e
       -0.15801324 0.34119233 0.38695005 0.39426687
000060 81 14 9c 3e 51 40 83 bc 17 d5 6d be 34 28 d4 3d
       0.30484393 -0.01602188 -0.23225819 0.10359231
000070 d0 b4 25 3e 2d ed b0 be 92 e1 08 be 14 86 86 3e
       0.16182256 -0.3455595 -0.13367298 0.26274168
000080 b1 73 74 3e b0 04 22 be 55 e7 8b be e6 dd fd 3d
       0.23872258 -0.158221 -0.2732493 0.123958394
000090 16 d9 47 be f0 56 ad bc 06 e9 97 bd c5 37 75 3e
       -0.19516405 -0.02115962 -0.074174926 0.23947056
0000a0 18 1d 88 3e 5e 6f ac be e5 e3 d0 bc 7c d8 72 3e
       0.26584697 -0.33678716 -0.025499294 0.23715395
0000b0 1f 72 50 be 52 82 15 bd e2 a7 5e bd e7 cb 3d bd
       -0.20356034 -0.036501236 -0.054359324 -0.046337035
0000c0 77 a4 9a be 81 16 ac 3c 56 83 5c 3e ca 1f 8e 3e
       -0.30203602 0.021006824 0.21534476 0.27758628
0000d0 e9 95 75 be c4 76 87 be 09 d6 e8 bd ac 2e 93 3e
       -0.23982967 -0.26457798 -0.11368949 0.28746545
0000e0 cb ef 9d be b5 fb 27 3e 49 47 cd bd 5f 2a 37 be
       -0.3084701 0.16404612 -0.10023362 -0.17887257
0000f0 6e b1 c6 3d f5 f1 02 be 15 57 13 3e 72 d7 a4 be
       0.09701811 -0.12787612 0.14388688 -0.32195622

net.2.weight f4 [5, 64]
000000 c8 8b ad bb bf e1 7e 38 d0 3d f5 38 2c 59 46 b9
       -0.0052962042 6.076856e-05 0.00011694024 -0.0001891597
000010 ef 42 9b b9 a8 66 2a b9 9f 74 00 3c 2f c4 41 bc
       -0.00029613773 -0.00016250706 0.007840305 -0.011826559
000020 4b e7 d2 3c 01 28 e9 bd 0e 8d 2e bd ce 8f 42 bd
       0.025745055 -0.11384583 -0.04261499 -0.047500424
000030 4f de 50 bc ab 12 54 b9 9b 3b ce bc 93 de 02 bd
       -0.012748315 -0.0002022485 -0.025174906 -0.031950545
000040 ae b6 bb 3d fe 24 e6 3c 96 be ea 3d a2 59 25 bd
       0.09165703 0.028093811 0.11462133 -0.040368684
000050 41 ce 99 bb 34 39 a4 3d e5 8e 0f bd e1 29 d8 bb
       -0.004693777 0.08018723 -0.035048384 -0.006596789
000060 06 4b 1f 3d 0c ba 73 3d 20 a8 8c 3c 84 7e b3 3d
       0.038889907 0.0595036 0.017170012 0.08764365
000070 1c b6 b0 3d 45 8c cb 38 fc 34 85 b9 e1 61 e3 bd
       0.086284846 9.7059215e-05 -0.00025407213 -0.11102653
000080 7a 73 d1 3d fe d0 37 b9 11 73 0c bd a2 1d b0 3d
       0.102271035 -0.00017530096 -0.034289423 0.08599402
000090 3c bd 3a b9 e2 8a ae bc a1 a0 b3 3c 84 45 d5 3d
       -0.00017808838 -0.021306459 0.02192718 0.1041365
0000a0 f5 26 c9 3c 05 8a 2b bd 02 b6 01 bd 67 5f d9 bd
       0.024554709 -0.041879673 -0.031667717 -0.106139
0000b0 d8 b0 84 39 4e 79 5f 37 8a 88 a2 3a a4 dc 70 b9
       0.0002530876 1.3320079e-05 0.0012400311 -0.00022970379
0000c0 f0 80 24 3a e6 c7 0b 3d 28 e5 6d bc 68 c1 e9 3d
       0.00062753167 0.034126185 -0.014519967 0.114138424
0000d0 1b bc 29 bd 57 3b 3b 3d a9 48 47 bd 55 48 00 3e
       -0.041439157 0.045710888 -0.04865328 0.12527592
0000e0 db 67 09 3a 16 c9 d9 3d 01 bb 12 3b a7 06 22 ba
       0.0005241611 0.10634057 0.0022389295 -0.0006180801
0000f0 99 c0 19 bd de 7a 17 3d b1 19 a5 3d 68 94 06 bd
       -0.03753719 0.03698241 0.08061541 -0.032856375
000100 b8 85 06 3d 0c 3d 38 3a 20 fb 3a b4 78 23 31 3b
       0.032842368 0.00070281397 -1.7413959e-07 0.0027029198
000110 39 eb c4 38 0c 62 45 bb 50 8c 11 b5 28 d2 17 3d
       9.389822e-05 -0.0030118255 -5.422089e-07 0.037065655
000120 9b 13 ea bc af 44 c4 bd 10 d7 82 b9 6c 64 1c bc
       -0.028573802 -0.09583413 -0.00024955766 -0.009545427
000130 e3 d3 17 3c 1b 51 34 3a 6c 17 ee bd c8 68 45 3d
       0.009266826 0.0006878541 -0.11625561 0.04819563
000140 20 18 d2 3d 85 96 b9 3c 09 1c 3c bd 70 ba e4 3d
       0.10258508 0.022654781 -0.045925174 0.11168373
000150 b6 d3 5a b9 9c ba 48 bd c4 15 74 3d ee c1 8f 3d
       -0.00020868969 -0.04900609 0.05959107 0.07019411
000160 96 ea b3 bc 29 f2 86 3c 5a ce 45 3d 2a 01 05 bc
       -0.021962445 0.016472893 0.048292495 -0.008117953
000170 a6 d1 ae 3d 67 81 91 37 d2 e4 27 b7 37 ae 2c bd
       0.08536081 1.7345605e-05 -1.0007252e-05 -0.04215833
000180 c9 21 36 3d 00 94 74 b5 f7 9d 1d bd f3 fa bc 3c
       0.044465814 -9.111245e-07 -0.038480725 0.02306888
000190 34 66 79 bb d2 f9 d4 3a 3e 61 d0 3b 75 5a 85 bd
       -0.0038055303 0.0016248769 0.0063592484 -0.06511394
0001a0 25 9c 09 bc e8 06 29 ba c1 99 b7 bc 5b 1a 75 bd
       -0.008399044 -0.00064478675 -0.022412183 -0.059839588
0001b0 ca d2 2c bd 31 e9 08 3d 37 0e 8a bb ce a7 a4 3c
       -0.04219321 0.033425514 -0.0042131203 0.020099547
0001c0 60 01 41 b8 74 6c 23 bd 7e 7f c0 3d ff 5b ce bd
       -4.6016066e-05 -0.03989835 0.09399317 -0.100761406
0001d0 9e ab 2e b9 74 4d 74 bc dc 6e d1 b8 e0 7a 0b bc
       -0.00016657865 -0.014911044 -9.986546e-05 -0.008513182
0001e0 09 43 35 ba 90 b0 cd b8 42 26 3a 3d 11 ca eb bc
       -0.0006914591 -9.808049e-05 0.04544664 -0.028782876
0001f0 4b 68 bd bc 30 22 5a 39 5b b2 05 3e ce 22 35 3a
       -0.02312102 0.00020802836 0.13056318 0.00069097884
000200 bd 71 e2 b9 b5 03 9a 39 32 a8 3c bd 93 92 2d 39
       -0.0004319082 0.0002937593 -0.04605884 0.00016553169
000210 3a 5a fd bc 81 4d f7 3c c5 eb 34 3a ed 7e c0 b6
       -0.030926812 0.030188324 0.00069015875 -5.736822e-06
000220 00 2c f6 3d 81 80 de bd 0f 55 00 3e 6b 8c 8d bd
       0.12020111 -0.10864354 0.12532447 -0.06911548
000230 2a 44 06 bd 00 88 e4 b7 a3 3e 05 3e 10 a7 bc bd
       -0.03277985 -2.7243048e-05 0.13012175 -0.09211552
000240 e7 fa a5 bd 8e 0c 1d 39 5f a1 08 bd 5e 03 53 3d
       -0.081044964 0.00014977364 -0.03335702 0.051516883
000250 80 9e a5 3b f5 b5 e8 bd d8 c8 b8 3d 0e 08 a4 3c
       0.005054295 -0.113628305 0.09022683 0.020023372
000260 79 ae 5a bd 99 aa 21 3c 64 7a c6 b6 5c 87 f0 3d
       -0.053389046 0.009867334 -5.915108e-06 0.11744568
000270 1f 81 f2 3c c9 74 fc b9 3d f1 f3 b8 b9 1a 1c bd
       0.029602585 -0.00048152197 -0.00011632077 -0.038111422
000280 7b 62 36 bc 14 82 35 3d b6 5b 3a b9 5b 5a fc 3d
       -0.011131878 0.044313505 -0.00017772507 0.123219214
000290 f0 4b bc b6 93 16 2e bd 9f 3f b0 3a e1 cc 78 3d
       -5.611677e-06 -0.042501997 0.0013446695 0.060742263
0002a0 da 7f c2 3c 9b 79 f8 37 6f a3 fa 3c 23 bd cd bc
       0.023742605 2.962053e-05 0.03059551 -0.025114601
0002b0 56 1c 31 37 2c 5d 70 ba 53 6f 16 3c 3c 46 e2 bc
       1.055662e-05 -0.0009169157 0.009181815 -0.027621381
0002c0 0d 6c b8 bb c5 8f 75 bd a3 8c 56 3d 67 2b 50 3c
       -0.005628115 -0.059951562 0.052380215 0.01270566
0002d0 2c 2e b2 3c d6 6d 8e bb 8a 89 47 3d 2b 3c f7 3d
       0.021750532 -0.0043465896 0.04871515 0.12072023
0002e0 85 99 3b bb 52 b2 bd 3c 5a e7 d0 3b 99 a7 46 3b
       -0.002862544 0.023156319 0.0063752355 0.0030312298
0002f0 b4 db df 3d 83 8b 30 3a 63 f0 40 bd 77 ba 27 bb
       0.10930577 0.0006734656 -0.04710425 -0.002559332
000300 6b a8 8a bc 95 d8 ee 3b d5 bc 9c 3c 0f 9b 1d bc
       -0.016926011 0.007289002 0.01913301 -0.009619488
000310 af 3b 8a 3c 7e 9a ce 39 35 21 ff bb 92 e7 6a b9
       0.016874162 0.00039406487 -0.007785941 -0.00022402246
000320 82 ec fa 3d 44 e6 ce bd 63 ab 20 bd dd 84 9b 3d
       0.122521415 -0.101025134 -0.039225947 0.07593701
000330 4d eb 0f 3a 8e 8f d2 bc 57 c3 88 ba c4 bd e0 3d
       0.00054900796 -0.025703218 -0.0010434192 0.10973695
000340 08 59 fd 3c 5e bf 36 38 16 be a3 bd 75 1e 59 3d
       0.030926242 4.3570406e-05 -0.079952404 0.05300756
000350 d2 67 ac 3b e9 ff b0 bd 7f ba 50 3d 2a 75 ff 3c
       0.0052614 -0.08642561 0.050959107 0.031183798
000360 a3 cb bf bd 11 47 be 3d c5 0b 3b bd f1 97 57 3d
       -0.093650125 0.092908986 -0.04566552 0.052635137
000370 6f e7 cb bc 9b 90 d9 bc 53 5c 37 b9 74 63 6c 3d
       -0.02489063 -0.026558211 -0.00017486633 0.057712033
000380 a7 88 08 3e 88 14 a7 38 6f 08 14 bd f4 ce c7 3d
       0.13333379 7.967005e-05 -0.036140855 0.0975627
000390 5b 77 e2 bc 4c eb 8d bc 69 f0 d0 38 50 95 88 bd
       -0.027644804 -0.017324112 9.962993e-05 -0.06669104
0003a0 ed 0a cc bd d5 2b d5 bc 64 17 ff bc 8b bd af 3b
       -0.099630214 -0.026021877 -0.031139083 0.0053631715
0003b0 70 73 c2 3b e6 65 5d bb 49 dc 8e bb e0 71 27 3a
       0.0059341714 -0.003378266 -0.004359756 0.0006387513
0003c0 7e c2 18 ba fc 7f 45 bd 52 03 e6 bc e4 5a b8 bd
       -0.00058273214 -0.04821776 -0.028077755 -0.09001711
0003d0 ed f1 09 39 da 9b 30 bd 59 3b 4c b8 e6 04 55 bc
       0.00013155463 -0.04311738 -4.8692662e-05 -0.013001656
0003e0 02 86 dc 39 ab d9 cc 3d f2 09 67 3c 7a 4b 33 3d
       0.00042061514 0.10002454 0.014101492 0.043773152
0003f0 98 e3 8e bd c6 62 8b 37 af a8 ba bd 3f 53 41 3d
       -0.06977004 1.6616086e-05 -0.09114205 0.04719853

net.2.bias f4 [5]
000000 31 c8 ce bd 73 ab 83 3c f9 cd e0 bd 13 21 7b bc
       -0.10096777 0.016072964 -0.10976786 -0.01532771
000010 96 f9 ae bc
       -0.021359246
